…
en', chendata_dir_name='2012_Chen', clip_value=0.01, config_dir='/home/zju/cxx/NTL_timeserise/data/SRCNN/net_02_1210/UNet/UNet_labelNoProcess_12_13/config', config_dir_name='config', config_name='config', criterion_content=MSELoss(), cuda=True, data_dir='/home/zju/cxx/NTL_timeserise/data/SRCNN/data/img04', dataset_type='ndvi', device=device(type='cuda'), device_ids=[1], dmsp_stat_dict={'normlizedtype': 'minMax', 'min': 0, 'max': 63, 'mean': 14.45, 'std': 17.65}, epoch=0, epochs_upLr='5000,8000', generator=U_Net(
  (Conv1): conv_block(
    (conv): Sequential(
      (0): ConvBlock(
        (conv): Conv2d(2, 16, kernel_size=(3, 3), stride=(1, 1), padding=(1, 1))
        (bn): BatchNorm2d(16, eps=1e-05, momentum=0.1, affine=True, track_running_stats=True)
        (act): ReLU(inplace)
      )
      (1): ConvBlock(
        (conv): Conv2d(16, 16, kernel_size=(3, 3), stride=(1, 1), padding=(1, 1))
        (bn): BatchNorm2d(16, eps=1e-05, momentum=0.1, affine=True, track_running_stats=True)
        (act): ReLU(inplace)
      )
    )
  )
  (Conv2): conv_block(
    (conv): Sequential(
      (0): ConvBlock(
        (conv): Conv2d(16, 32, kernel_size=(3, 3), stride=(1, 1), padding=(1, 1))
        (bn): BatchNorm2d(32, eps=1e-05, momentum=0.1, affine=True, track_running_stats=True)
        (act): ReLU(inplace)
      )
      (1): ConvBlock(
        (conv): Conv2d(32, 32, kernel_size=(3, 3), stride=(1, 1), padding=(1, 1))
        (bn): BatchNorm2d(32, eps=1e-05, momentum=0.1, affine=True, track_running_stats=True)
        (act): ReLU(inplace)
      )
    )
  )
  (Conv3): conv_block(
    (conv): Sequential(
      (0): ConvBlock(
        (conv): Conv2d(32, 64, kernel_size=(3, 3), stride=(1, 1), padding=(1, 1))
        (bn): BatchNorm2d(64, eps=1e-05, momentum=0.1, affine=True, track_running_stats=True)
        (act): ReLU(inplace)
      )
      (1): ConvBlock(
        (conv): Conv2d(64, 64, kernel_size=(3, 3), stride=(1, 1), padding=(1, 1))
        (bn): BatchNorm2d(64, eps=1e-05, momentum=0.1, affine=True, track_running_stats=True)
        (act): ReLU(inplace)
      )
    )
  )
  (Conv4): conv_block(
    (conv): Sequential(
      (0): ConvBlock(
        (conv): Conv2d(64, 128, kernel_size=(3, 3), stride=(1, 1), padding=(1, 1))
        (bn): BatchNorm2d(128, eps=1e-05, momentum=0.1, affine=True, track_running_stats=True)
        (act): ReLU(inplace)
      )
      (1): ConvBlock(
        (conv): Conv2d(128, 128, kernel_size=(3, 3), stride=(1, 1), padding=(1, 1))
        (bn): BatchNorm2d(128, eps=1e-05, momentum=0.1, affine=True, track_running_stats=True)
        (act): ReLU(inplace)
      )
    )
  )
  (Conv5): conv_block(
    (conv): Sequential(
      (0): ConvBlock(
        (conv): Conv2d(128, 256, kernel_size=(3, 3), stride=(1, 1), padding=(1, 1))
        (bn): BatchNorm2d(256, eps=1e-05, momentum=0.1, affine=True, track_running_stats=True)
        (act): ReLU(inplace)
      )
      (1): ConvBlock(
        (conv): Conv2d(256, 256, kernel_size=(3, 3), stride=(1, 1), padding=(1, 1))
        (bn): BatchNorm2d(256, eps=1e-05, momentum=0.1, affine=True, track_running_stats=True)
        (act): ReLU(inplace)
      )
    )
  )
  (Up5): up_conv(
    (up): Sequential(
      (0): DeconvBlock(
        (deconv): ConvTranspose2d(256, 128, kernel_size=(3, 3), stride=(1, 1), padding=(1, 1))
        (act): ReLU(inplace)
      )
    )
  )
  (Up_conv5): conv_cat_block(
    (conv): Sequential(
      (0): ConvBlock(
        (conv): Conv2d(256, 128, kernel_size=(1, 1), stride=(1, 1))
        (act): ReLU(inplace)
      )
      (1): ConvBlock(
        (conv): Conv2d(128, 128, kernel_size=(3, 3), stride=(1, 1), padding=(1, 1))
        (act): ReLU(inplace)
      )
      (2): ConvBlock(
        (conv): Conv2d(128, 128, kernel_size=(3, 3), stride=(1, 1), padding=(1, 1))
        (act): ReLU(inplace)
      )
    )
  )
  (Up4): up_conv(
    (up): Sequential(
      (0): DeconvBlock(
        (deconv): ConvTranspose2d(128, 64, kernel_size=(3, 3), stride=(1, 1), padding=(1, 1))
        (act): ReLU(inplace)
      )
    )
  )
  (Up_conv4): conv_cat_block(
    (conv): Sequential(
      (0): ConvBlock(
        (conv): Conv2d(128, 64, kernel_size=(1, 1), stride=(1, 1))
        (act): ReLU(inplace)
      )
      (1): ConvBlock(
        (conv): Conv2d(64, 64, kernel_size=(3, 3), stride=(1, 1), padding=(1, 1))
        (act): ReLU(inplace)
      )
      (2): ConvBlock(
        (conv): Conv2d(64, 64, kernel_size=(3, 3), stride=(1, 1), padding=(1, 1))
        (act): ReLU(inplace)
      )
    )
  )
  (Up3): up_conv(
    (up): Sequential(
      (0): DeconvBlock(
        (deconv): ConvTranspose2d(64, 32, kernel_size=(3, 3), stride=(1, 1), padding=(1, 1))
        (act): ReLU(inplace)
      )
    )
  )
  (Up_conv3): conv_cat_block(
    (conv): Sequential(
      (0): ConvBlock(
        (conv): Conv2d(64, 32, kernel_size=(1, 1), stride=(1, 1))
        (act): ReLU(inplace)
      )
      (1): ConvBlock(
        (conv): Conv2d(32, 32, kernel_size=(3, 3), stride=(1, 1), padding=(1, 1))
        (act): ReLU(inplace)
      )
      (2): ConvBlock(
        (conv): Conv2d(32, 32, kernel_size=(3, 3), stride=(1, 1), padding=(1, 1))
        (act): ReLU(inplace)
      )
    )
  )
  (Up2): up_conv(
    (up): Sequential(
      (0): DeconvBlock(
        (deconv): ConvTranspose2d(32, 16, kernel_size=(3, 3), stride=(1, 1), padding=(1, 1))
        (act): ReLU(inplace)
      )
    )
  )
  (Up_conv2): conv_cat_block(
    (conv): Sequential(
      (0): ConvBlock(
        (conv): Conv2d(32, 16, kernel_size=(1, 1), stride=(1, 1))
        (act): ReLU(inplace)
      )
      (1): ConvBlock(
        (conv): Conv2d(16, 16, kernel_size=(3, 3), stride=(1, 1), padding=(1, 1))
        (act): ReLU(inplace)
      )
      (2): ConvBlock(
        (conv): Conv2d(16, 16, kernel_size=(3, 3), stride=(1, 1), padding=(1, 1))
        (act): ReLU(inplace)
      )
    )
  )
  (Conv): ConvBlock(
    (conv): Conv2d(16, 1, kernel_size=(1, 1), stride=(1, 1))
  )
), gpu_mode=False, gradient_loss=False, gt0Mask=False, in_channels=2, indata_normlizeType='minMax', inputdata_dir='/home/zju/cxx/NTL_timeserise/data/SRCNN/data/img04/2012_2013oriDNL', inputdata_dir_name='2012_2013oriDNL', inputdata_maxDN=63, inputdata_meanDN=14.45, inputdata_minDN=0, inputdata_std=17.65, isClip_to_lossCal=False, isLR=False, isNDVIcoeff
…
